best_mst_model.pth (torch, 587461 bytes, 29 tensors)

node_encoder.0.weight f4 [128, 9]
000000 c1 d7 9c bc 8f 4f 40 be 8e 71 e9 bd c8 5e b6 bd
       -0.019145848 -0.18780349 -0.11398612 -0.08904797
000010 ba ae c7 bd 52 b3 83 bd d2 76 7c 3e d1 8c 83 be
       -0.09750123 -0.06430687 0.24654701 -0.25693372
000020 df 0d 34 bc a7 ba 99 be 56 ef 82 3e 98 94 08 be
       -0.010989635 -0.30025217 0.25573224 -0.13337934
000030 d2 e5 19 be eb 53 49 3e 4c 1c 99 3e 5c f3 a8 be
       -0.15029076 0.19660918 0.299044 -0.32998168
000040 0d 17 58 3e 3e 52 52 3e 6e 8f 6d 3e bd 5c 5a 3e
       0.21102543 0.20539185 0.23199245 0.2132444
000050 bb f2 56 be e5 29 9f 3d 77 7d 60 3e ea 15 d5 bc
       -0.20991032 0.077716626 0.21922861 -0.026011426
000060 6f 7b 1f be 34 8f 98 3b 6f 24 8c be 6f df 2e 3d
       -0.1557443 0.004655743 -0.27371547 0.04269355
000070 ef 0b 8e 3e 71 3f 41 3e 02 65 93 3d 5b 00 9b 3d
       0.2774348 0.18871857 0.07197 0.07568427
000080 45 99 a2 be f3 79 5b 3d 26 cf b1 3c 03 3d b3 bd
       -0.3175756 0.053583097 0.021705221 -0.087518714
000090 f0 73 94 3e 0b b3 bf bb fe 55 63 3e 3e b9 c6 bd
       0.28994703 -0.005850201 0.22200772 -0.09703301
0000a0 5c 8b 90 3e d4 4e 8b 3d fa 99 71 3d df ea 83 3d
       0.28231323 0.06802145 0.058984734 0.064412825
0000b0 f7 7e f5 bc 20 db 69 be 28 f6 33 be bf 9d 9d 3e
       -0.029967768 -0.22837496 -0.1757437 0.30784413
0000c0 c3 d3 40 3e c0 0f 04 3d 38 f4 2a be 0b 6c 52 3e
       0.1883078 0.032241583 -0.16694725 0.20549028
0000d0 20 b5 ed 3d 8b 70 98 bd 28 0c 26 3d 62 46 b1 bd
       0.116068125 -0.07443341 0.040538937 -0.086560026
0000e0 13 d9 ae be fa ae e1 3b 07 94 9b 3e 36 bb 3f 3e
       -0.3414999 0.006887314 0.30386373 0.18723759
0000f0 62 c4 b0 be 9d 6f 99 3e ed f4 64 3d 18 4e 62 3e
       -0.34524828 0.29967967 0.055897642 0.22100103
000100 65 7f 8c 3e e9 c8 f1 bc 94 5e 6e 3e f4 75 87 be
       0.27440944 -0.029514747 0.23278266 -0.2645718
000110 2f eb 81 bd 2b 32 2d 3e 88 6f 34 bd c3 0f 9f 3e
       -0.06343686 0.16913669 -0.044051677 0.31066713
000120 aa 0e 3a 3c 87 24 85 3e 6d 83 41 3e 3a 3e 5e 3e
       0.011356035 0.2600443 0.18897791 0.21703425
000130 af ba 03 bd cf f6 55 be 1e dd 87 3e 34 21 c4 3d
       -0.032160457 -0.20894931 0.26535887 0.095766455
000140 6e 5e 6f 3e 3a 31 4f 3d b6 32 84 3e 5b b2 12 3d
       0.23375866 0.050584055 0.2581994 0.035814624
000150 31 9f 6e be 5d 31 aa bd 39 8e 00 3e 7d 78 3a be
       -0.23302914 -0.083101965 0.12554254 -0.18210025
000160 54 30 c1 3d c6 60 07 be da 68 7b 3e 29 54 7d 3e
       0.09433046 -0.1322051 0.24551716 0.24739136
000170 45 60 df bd 8d 00 f2 3c a8 34 dc 3c 30 c1 85 3e
       -0.10907034 0.029541278 0.026880577 0.26123953
000180 22 7d bb 3d 90 0a 9c 3e 3b 5d e9 3d cb 18 2f be
       0.091547266 0.3047681 0.113947354 -0.17099302
000190 10 ab 8e 3b dc 84 29 be 89 82 52 be 4e c9 58 be
       0.0043538883 -0.16554588 -0.20557608 -0.21170542
0001a0 16 4a bf 3d 8a 26 df 3b ac 1d 9c bd 90 b1 69 3e
       0.09340303 0.006810014 -0.07622847 0.22821641
0001b0 6b e2 2d bd 70 58 48 3e 18 95 6f be 66 10 3c 3e
       -0.042452257 0.19564986 -0.23396719 0.1836563
0001c0 2f 62 99 be 7b b0 9c 3e 50 b3 27 be 06 91 9a be
       -0.2995772 0.30603394 -0.16376996 -0.3018877
0001d0 48 54 35 be 3b d2 6d be 0e 33 1e be dd 18 9a 3e
       -0.17707932 -0.23224728 -0.15449163 0.30097094
0001e0 5b e2 c6 bd 24 57 87 be a7 7f e8 bd 53 a5 15 3e
       -0.09711143 -0.2643367 -0.11352473 0.14613847
0001f0 65 2a 75 bd e5 40 65 be af 76 5b be 2d 23 90 3e
       -0.059854884 -0.22388037 -0.21431993 0.28151837
000200 e3 b8 3a bd 1a f4 a3 be 18 3b 19 be eb e9 5e 3e
       -0.045586478 -0.32022172 -0.14963949 0.2176892
000210 98 fa 3e be 63 e5 3a 3e 1b d8 14 3e 75 cd 96 3e
       -0.18650281 0.18251567 0.14535563 0.29453626
000220 4f 2e d1 bc db 25 64 be 82 78 37 be eb b6 4c 3e
       -0.025534777 -0.22280066 -0.17917064 0.19991653
000230 03 2b 9d be c0 fd 59 3e 29 77 50 bd 5e 9e 1d be
       -0.30696878 0.21288204 -0.05089489 -0.15392444
000240 cd a2 ae 3e f9 45 ae bd 7a 01 d8 bd db 05 f3 3d
       0.34108582 -0.0850944 -0.10547157 0.11866351
000250 ea 4a 8b be e5 50 54 be f1 0a 88 be ff aa 66 3e
       -0.27205592 -0.20733984 -0.26570848 0.22526167
000260 28 b6 ac 3c 8f f3 30 3e 4e 3c c1 3d 86 7f 36 be
       0.021082953 0.1728041 0.0943533 -0.17822084
000270 b3 cf 25 bd 9f 67 18 3e 7b 3c 81 be 2d 10 29 be
       -0.04048128 0.14883278 -0.25241455 -0.16510077
000280 36 44 d1 3d f0 b2 1b 3d ae 86 25 3d 31 e3 9d bd
       0.10218088 0.038012445 0.040411644 -0.07709349
000290 ce 18 90 be f3 73 91 be 4b be f4 bd f6 46 f8 3d
       -0.28143924 -0.28408775 -0.11950358 0.1212291
0002a0 eb 9c 7e be aa 25 5e 3c 39 8c 96 3d 12 7c 9f be
       -0.24864547 0.0135587845 0.07350964 -0.31149346
0002b0 f8 38 9e 3e 6b b2 4c 3e a6 fd ce 3d 14 e9 81 be
       0.3090284 0.19989936 0.10106973 -0.25373137
0002c0 f0 0f 01 3e b3 3c 22 be 4b 1a 2f be 76 48 23 bd
       0.12603736 -0.15843467 -0.17099874 -0.039864026
0002d0 69 be f7 bd 96 6f 8c 3e 88 0a 84 be 44 c9 db bd
       -0.12096865 0.27428883 -0.25789285 -0.10731748
0002e0 01 57 e6 bd 20 a7 aa 3d c2 71 2b 3e 95 c8 0f 3d
       -0.112470634 0.08332658 0.16742614 0.0351034
0002f0 02 7d 14 bb 65 55 27 be cf 31 0d bb e3 28 21 bd
       -0.0022657518 -0.16341169 -0.002154458 -0.039345633
000300 a9 5f 55 3e a6 81 5f 3e f5 4f 8a be 55 57 88 be
       0.20837273 0.218268 -0.27014127 -0.2662913
000310 90 32 92 be 31 50 4c 3e 68 b8 97 3d 76 ec ed 3c
       -0.285542 0.19952466 0.074082196 0.029043417
000320 f6 65 96 be 33 3f 5d be d3 7f 5c 3e c1 01 a9 bc
       -0.29374665 -0.2160614 0.21533136 -0.02063072
000330 21 40 da 3d 22 2a cb 3d b5 d2 0b bd ae ca 3b bc
       0.10656763 0.099201456 -0.034136493 -0.011461897
000340 3d 55 98 be 80 6a 67 3d 88 16 89 3e 34 28 a0 3e
       -0.29752532 0.05649805 0.26775002 0.31280673
000350 e9 18 15 3e 06 c8 b5 3d da 9c 47 be 30 51 6a be
       0.14560284 0.08876042 -0.19493428 -0.22882533
000360 c1 3d 18 3e c4 62 5c be 28 ea 61 be e7 3f 41 3b
       0.14867307 -0.21522051 -0.2206198 0.0029487552
000370 a0 ee 53 bd d2 4a 5c 3e 86 c5 3f 3e a2 a2 ca bd
       -0.051741242 0.21512917 0.18727693 -0.09894301
000380 42 49 93 3e ef 26 03 bd f2 7d 02 3c 4f 69 a3 3d
       0.2876683 -0.03201955 0.007964598 0.079790704
000390 1c f1 18 3e 8e 1b 39 be 9f 51 81 be 50 6a f4 3d
       0.14935726 -0.18076918 -0.25257584 0.1193434
0003a0 25 fc 44 3e 05 82 84 3e b2 6d eb 3c 0e 97 95 be
       0.1923681 0.25880447 0.02873883 -0.29216808
0003b0 d4 49 08 be 3c 6f 72 bd a9 36 19 3e 2a b4 c0 3b
       -0.13309413 -0.059188113 0.14962257 0.005880852
0003c0 47 1f 94 be 55 88 78 3b e9 7b 6a be 32 82 9f 3e
       -0.28930113 0.0037923057 -0.2289883 0.3115402
0003d0 ae 69 36 3e c9 a3 3e 3e bb f1 41 3d c9 fe ae bc
       0.17813751 0.18617167 0.047349673 -0.021361725
0003e0 cf da a5 be d3 cf 93 3d c4 ed ab 3e 59 5d f7 bc
       -0.323935 0.07217374 0.33579838 -0.030195879
0003f0 10 dd 0e 3d 34 c3 93 3d a6 e7 17 be 77 0b 0b be
       0.03487879 0.072149664 -0.1483446 -0.13578592

node_encoder.0.bias f4 [128]
000000 5f a1 ca 3d 1e cc 20 3d 33 ae e9 3d 29 40 0c be
       0.0989406 0.03925716 0.11410179 -0.1369635
000010 0e 04 9f be 10 a2 85 3d 08 c9 75 3d e0 e0 83 bd
       -0.3105778 0.065250516 0.06000617 -0.06439376
000020 a4 34 99 3e d2 ec 4f be 72 dc 58 be 5d f4 8e 3d
       0.29922974 -0.20305184 -0.21177843 0.06980202
000030 93 6d 7e be bc dd ab 3e 73 06 21 be 5a 03 9c 3d
       -0.24846487 0.33567607 -0.15725116 0.07617827
000040 37 10 9e 3d d8 da 8b be db ef 8a be 4b 49 4a be
       0.077179365 -0.27315402 -0.2713612 -0.19754522
000050 be 3a c0 3d b1 b7 6a bb 32 3c 8f 3e 90 93 8a be
       0.09386204 -0.0035815055 0.27975613 -0.27065706
000060 96 4b 9d 3c 10 d0 38 be b9 05 20 be de fd 58 3d
       0.019201081 -0.1804812 -0.15627183 0.05297648
000070 c7 0e 7f 3c 3d df b6 3d 96 6c 90 3e 5f 5a 27 3e
       0.015567488 0.08929298 0.28207844 0.16343068
000080 b2 2e 6c be 47 07 ab 3e 7f d3 fa 3d 4c c4 b6 3d
       -0.23064688 0.3340399 0.12247371 0.089241594
000090 c8 6b 4f 3e 08 a8 8f 3d fe fe dc 3d 76 50 97 3e
       0.20255959 0.07014471 0.107908234 0.29553574
0000a0 90 2f a7 be b4 7a 9f be ab 2c 79 3d 41 76 af 3d
       -0.32653475 -0.31148303 0.060833614 0.08567477
0000b0 98 f6 68 bc 04 b1 b0 be 40 b8 26 3d 72 0b c6 3d
       -0.014218949 -0.34510052 0.04070306 0.09670152
0000c0 67 ee e8 bc 80 b1 95 bc 9d e9 9a 3e da 4e 32 bd
       -0.028433992 -0.018273115 0.30256358 -0.04353223
0000d0 27 51 a8 bc 6a 95 a5 3e 36 cb ff bd 35 18 6a be
       -0.020546509 0.32340556 -0.12489931 -0.22860797
0000e0 2c 1e 8a be cf de 9e be c3 2e ad be 14 68 9d 3e
       -0.26976144 -0.31029364 -0.3382474 0.30743468
0000f0 32 f1 ab be 59 7d 3f be 01 1f 36 bd c0 3b a8 bd
       -0.33582455 -0.1870016 -0.04446316 -0.082145214
000100 c7 d2 80 3e 5c 5e b7 3e 76 77 a5 3e 39 33 9a be
       0.2516081 0.35814178 0.32317704 -0.30117205
000110 b5 5e e4 3b 1c a6 f4 3a a4 e5 76 3e f0 c6 1c 3e
       0.006969298 0.0018665227 0.24111038 0.15310264
000120 21 27 4b be 45 6d a8 3c 7e 81 79 3e 62 1e db 3d
       -0.19839145 0.020559916 0.24365804 0.106991544
000130 0d 0a 22 be 2b fe 20 be 3d 6d f1 bd 76 db f5 bd
       -0.15824147 -0.15721957 -0.11788414 -0.120047495
000140 05 c6 6b 3d ac b7 2e 3b 7e 07 aa 3e 9b 17 2b bd
       0.057561893 0.002665977 0.3320884 -0.04177056
000150 34 de 79 be ee fb e4 3d 4d 45 b8 3d 5e f7 ad 3e
       -0.2440117 0.11180864 0.08997593 0.3397779
000160 6d 6e 15 3e 98 ef 73 be 08 b0 52 3e b3 0f 94 be
       0.14592905 -0.23821867 0.20574963 -0.28918228
000170 ef b6 24 be 67 ec d2 bd b7 6d 4c 3d 73 95 12 bd
       -0.16085409 -0.102989964 0.04990932 -0.035787057
000180 9c 5c a8 3e 05 fa 00 3e 58 fe e7 3b 4b ac 81 3d
       0.32883155 0.12595375 0.0070798807 0.063316904
000190 2b d0 44 bd 31 47 1e 3e 80 2c f3 3c b4 5f a6 3c
       -0.048050087 0.15456845 0.029684305 0.020309307
0001a0 2c 38 4a 3e 15 8c 1d 3e 98 31 c0 3d 0b 44 80 be
       0.1974799 0.15385468 0.09384459 -0.25051913
0001b0 5d 5c a0 be 6f 2f 07 be 64 67 a5 be 49 6e f8 bd
       -0.31320468 -0.13201688 -0.32305443 -0.1213041
0001c0 ba f6 38 3e c7 16 89 3e f1 74 c4 3d 24 0b 6d 3e
       0.18062869 0.2677519 0.09592617 0.23148781
0001d0 02 de d4 3d bd 05 2f 3e 3f db 2c be 93 a1 fc 3d
       0.10393907 0.17092033 -0.16880511 0.12335505
0001e0 f1 3e 6d 3d 8e 76 9a bd 0d 62 b2 bd 07 48 b6 bd
       0.057921354 -0.07542144 -0.08710108 -0.08900457
0001f0 e5 51 81 3e e6 95 c8 bd d2 e3 bc 3d 5b 52 35 3e
       0.25257793 -0.09794216 0.09223141 0.17707197

node_encoder.2.weight f4 [128]
000000 ab 1a 81 3f 4c c8 82 3f 20 a3 82 3f 59 c3 80 3f
       1.0086263 1.0217376 1.0206032 1.0059615
000010 02 68 7e 3f ff 32 7f 3f 7b 30 80 3f df f3 7f 3f
       0.99377453 0.9968719 1.0014795 0.9998149
000020 87 9c 7a 3f 20 27 80 3f 7d 73 81 3f 92 48 80 3f
       0.9789509 1.001194 1.0113369 1.0022147
000030 5e 6e 80 3f 1d 8e 80 3f 2e fe 79 3f 39 e3 82 3f
       1.0033681 1.004337 0.9765347 1.0225593
000040 6e 38 7f 3f 08 5d 81 3f a5 0c 7e 3f 72 d1 7d 3f
       0.9969548 1.0106516 0.99238044 0.99147713
000050 4e 77 7f 3f c5 0a 7c 3f b4 5b 7e 3f 13 69 80 3f
       0.9979142 0.98453933 0.9935868 1.0032066
000060 17 18 81 3f e3 bf 7b 3f 45 d6 80 3f cb c9 83 3f
       1.0085477 0.9833967 1.006539 1.0295957
000070 14 f6 81 3f cd 92 83 3f 2b de 7e 3f fb bc 7f 3f
       1.0153222 1.0279175 0.9955775 0.99897736
000080 05 d5 7f 3f 17 a8 7e 3f 81 82 82 3f fb 0e 83 3f
       0.99934417 0.99475235 1.0196077 1.0238947
000090 bd f1 7e 3f bf 25 80 3f f3 50 7e 3f 1d 68 7f 3f
       0.99587613 1.0011519 0.9934227 0.9976824
0000a0 7a 3f 80 3f 15 c4 7f 3f 6c bf 80 3f 81 26 7e 3f
       1.0019372 0.9990857 1.0058417 0.992775
0000b0 e4 e9 80 3f 1d 3f 82 3f ee 15 81 3f 47 44 7f 3f
       1.0071378 1.0175511 1.0084817 0.9971356
0000c0 26 1b 80 3f 6c a8 7e 3f 9c e0 81 3f 50 1b 83 3f
       1.0008285 0.9947574 1.014667 1.024271
0000d0 21 f0 7d 3f f8 13 80 3f 7a 8e 80 3f 02 42 80 3f
       0.9919453 1.0006094 1.004348 1.0020144
0000e0 3d a5 7f 3f 8d 35 80 3f 40 6d 82 3f 9b e6 7e 3f
       0.9986151 1.0016342 1.018959 0.99570626
0000f0 2e 48 84 3f 32 5f 82 3f d2 de 7a 3f bb e3 80 3f
       1.0334527 1.0185301 0.97996247 1.0069498
000100 6e 67 80 3f 89 4f 7e 3f a0 34 7e 3f eb 0d 80 3f
       1.0031564 0.9934011 0.9929905 1.0004247
000110 2f 05 83 3f 3f 4b 80 3f a6 57 82 3f 6d 94 7e 3f
       1.0235957 1.0022963 1.0182998 0.9944523
000120 c8 b0 7f 3f 2f 3e 80 3f 4c 6b 80 3f 11 67 7d 3f
       0.9987912 1.0018977 1.0032744 0.9898539
000130 e3 19 7b 3f 7e 0b 7f 3f 20 a5 7e 3f 23 73 80 3f
       0.98086375 0.9962691 0.9947071 1.0035137
000140 02 a2 7f 3f 85 7e 82 3f 4c d0 82 3f 5a 31 80 3f
       0.9985658 1.0194861 1.0219817 1.0015061
000150 e3 fb 7e 3f db a6 7f 3f e2 4d 81 3f 5e b1 80 3f
       0.996031 0.99863976 1.0101893 1.0054128
000160 c2 50 7e 3f a2 e4 7b 3f 49 7a 80 3f f0 76 80 3f
       0.99341977 0.9839574 1.0037318 1.0036297
000170 53 8e 7f 3f 64 62 80 3f a8 33 7b 3f 22 a9 80 3f
       0.99826545 1.0030026 0.98125696 1.0051615
000180 84 bc 82 3f 8f 4c 7f 3f 5c a3 7f 3f 52 b0 7e 3f
       1.021378 0.99726194 0.9985864 0.99487793
000190 cc 56 82 3f 5c 1b 7d 3f 93 b3 80 3f 38 ef 80 3f
       1.0182738 0.9886987 1.0054802 1.0073004
0001a0 df d7 82 3f 6b a4 7f 3f 58 40 7e 3f 35 a1 80 3f
       1.0222129 0.99860257 0.9931693 1.0049196
0001b0 a5 ac 7c 3f 9b f0 7c 3f 4a 0e 7e 3f 57 d8 7c 3f
       0.98700935 0.98804635 0.99240553 0.9876761
0001c0 f0 f3 82 3f af 0d 81 3f e6 01 82 3f c7 2f 7e 3f
       1.0230694 1.0082301 1.0156829 0.9929165
0001d0 e2 ba 80 3f 5b d3 7e 3f 1b c8 80 3f 01 db 80 3f
       1.0057032 0.9954125 1.0061067 1.0066835
0001e0 6c 5f 81 3f 14 9c 80 3f e0 07 80 3f 79 e9 7b 3f
       1.0107245 1.0047631 1.0002403 0.98403126
0001f0 20 57 81 3f cf 3f 7f 3f 11 5d 80 3f 29 f2 80 3f
       1.0104713 0.9970674 1.0028402 1.0073901

node_encoder.2.bias f4 [128]
000000 23 02 11 bc 95 2b ba ba 15 d3 83 bb 26 70 a5 bb
       -0.008850607 -0.0014203662 -0.0040229657 -0.0050487695
000010 48 8f a0 38 88 9f 44 3b f7 03 bb bb 5d 71 40 bb
       7.656083e-05 0.0030002315 -0.0057072598 -0.0029364445
000020 02 bd 47 bc 34 ee f5 ba 32 da d2 3b b4 f3 20 3c
       -0.012191059 -0.0018763007 0.0064347023 0.009823728
000030 47 64 69 bb ab e2 94 bb de 87 05 bb 87 a2 d9 bb
       -0.0035612748 -0.0045436225 -0.0020375173 -0.006641689
000040 a7 fa f3 3b 13 05 d0 bb 1e 49 d1 3b ea fb 0a 3c
       0.0074456516 -0.006348261 0.00638689 0.008482913
000050 41 37 f6 ba 29 8c 92 3c 1b 04 5a 3b 8e cc e1 39
       -0.0018784777 0.0178891 0.0033266607 0.0004306775
000060 87 8c f1 3a c4 33 6d bb 1e f0 c4 bb 90 b0 45 3b
       0.0018428721 -0.0036194185 -0.0060100695 0.0030165054
000070 61 04 04 3b 1e 6e 36 ba b2 d6 8d 3b f4 37 d1 bb
       0.0020144212 -0.0006959158 0.004328572 -0.006384844
000080 12 5f e6 3a b8 5b 30 bb 06 37 c8 bb d5 70 8a 3b
       0.0017575941 -0.0026910137 -0.006110075 0.0042248764
000090 3b 26 93 3b 5c ab bc ba 8d 09 31 3c 8a df a8 bb
       0.0044906414 -0.0014394331 0.0108055 -0.005153601
0000a0 3e 20 52 bc 22 a9 4c 3a 2e 06 26 bb 63 da fa 3b
       -0.01282507 0.0007807185 -0.0025333273 0.0076554283
0000b0 79 ae 7c bb 8d 21 9c ba c0 fd 0d 39 05 e8 65 3b
       -0.0038556142 -0.0011911854 0.00013541337 0.0035080921
0000c0 06 4f 44 b9 fb 10 a5 3b d6 cc a3 3a 87 ee 0d 3c
       -0.00018721455 0.0050374246 0.0012496959 0.008662826
0000d0 76 57 c6 ba 28 36 de 3b d5 a7 3e 3c 78 e0 60 3c
       -0.0015132267 0.0067813583 0.011636694 0.0137253925
0000e0 50 6f b0 b9 f8 58 e7 ba e4 37 f7 ba fc a9 92 3b
       -0.0003365227 -0.0017650416 -0.0018861261 0.00447583
0000f0 e1 ff 8d 3b 75 ff 9e 3b 8e 8d 40 bc 98 58 e1 bb
       0.0043334817 0.00485223 -0.011752499 -0.0068770163
000100 b5 8e 24 bb c3 84 3f 3a 1c 94 d0 3b c9 e8 2f ba
       -0.0025109474 0.0007305855 0.0063653123 -0.0006710408
000110 64 24 fb bb 63 c6 35 3b bb 75 09 3b 3c c0 b0 3b
       -0.00766425 0.0027736656 0.0020974714 0.00539401
000120 78 08 dc 38 e4 a5 41 ba eb 3c 8b bb 28 45 c6 bb
       0.00010491995 -0.00073870854 -0.0042492053 -0.0060507245
000130 bc 6d 6d 3c 9e d9 0d 3b bf 7e b3 3b a1 e5 76 bb
       0.014491495 0.0021644603 0.005477756 -0.003767349
000140 95 d0 fb 3a 6f 5f f8 3b 55 e9 80 bb dd 13 34 3b
       0.0019211943 0.007579736 -0.0039340653 0.002747766
000150 24 9c a0 bb 79 1c da 3b 12 82 76 bb 88 70 72 bb
       -0.004901426 0.0066562262 -0.003761415 -0.0036993343
000160 5b e3 26 3c f5 5b 9c 3c 8b cc 8f 3a c5 db 48 bb
       0.010186042 0.019086817 0.0010970993 -0.003064857
000170 76 06 60 3b 6f 97 55 3a 04 51 79 3c cd 94 b2 bb
       0.0034183539 0.00081478705 0.01521707 -0.0054498673
000180 eb bb 7f bb 98 93 94 37 ed d0 02 3c e1 d3 b3 bb
       -0.003902192 1.7711704e-05 0.007984382 -0.0054879044
000190 77 c3 32 bb 70 63 89 bb 8e b4 bd bb 99 9b 09 bc
       -0.002727715 -0.004192762 -0.005789346 -0.008398914
0001a0 98 a7 88 3c eb 50 95 3a ee 21 b6 3b 37 bc ab bb
       0.016681477 0.0011391913 0.005558244 -0.005240943
0001b0 53 cd fd bb 49 00 44 3c c0 6b fb 3b b5 09 1f 3c
       -0.007745424 0.011962959 0.007672757 0.009706904
0001c0 5a 50 8e 3b bc 6a 88 3b 59 75 bb 3b 99 54 47 bc
       0.0043430747 0.0041631144 0.005720776 -0.012166166
0001d0 03 41 d0 3b d2 f0 00 3a 63 f9 8c 3b 00 29 21 bc
       0.0063554063 0.00049186975 0.00430219 -0.009836435
0001e0 e8 21 17 bc 58 74 a2 3a 0e b7 10 bb 2d 97 0f 3c
       -0.0092243925 0.0012394292 -0.0022081765 0.00876407
0001f0 15 99 bd 3b 9b 0d e2 bb 25 e1 4e 3a 61 13 e0 bb
       0.005786071 -0.0068985946 0.00078918255 -0.0068382476

gnn_layers.0.bias f4 [128]
000000 56 dc 36 3c ef a6 52 bb 1b d7 01 bc c3 43 bb 3b
       0.011160931 -0.0032142957 -0.00792482 0.005714865
000010 52 b2 99 bb 3d 8c 7b bb 8b 80 6b bc c2 d9 ac 3b
       -0.004690447 -0.003838315 -0.014373909 0.005274982
000020 8c 3b cb b9 c8 b4 e3 ba e4 a1 fd bb 4f df 0f bc
       -0.00038763543 -0.0017372603 -0.007740246 -0.008781268
000030 58 9d cc bb 39 4f 60 b9 14 60 a7 3b 52 ca 16 bc
       -0.006244343 -0.00021391817 0.005107889 -0.00920351
000040 cc 94 a3 3b ce 43 67 3b 88 26 c2 3a 1f 4b fa bb
       0.004992103 0.0035288217 0.0014812509 -0.0076383497
000050 c6 cd fa bb 79 14 73 bc 8b 2e 90 bb bc 30 32 bc
       -0.0076539246 -0.014836424 -0.0044000796 -0.010875877
000060 ec 56 c5 3a f1 db e8 3b be 6c 0a bc ce 11 3b 3c
       0.0015055812 0.007106297 -0.008448778 0.011417819
000070 77 54 8b 3b ea d5 04 3c a8 b4 5a bc 5e da 36 bc
       0.0042520124 0.008107642 -0.013348736 -0.011160461
000080 d7 93 9b bb 9d 3a f5 3b 45 92 c5 3b 35 49 79 bc
       -0.0047478485 0.007483794 0.0060293996 -0.015215208
000090 dd 29 ea bb 1b e3 9a 3b ea 52 93 38 f6 9b b0 bb
       -0.007146104 0.00472678 7.02495e-05 -0.0053896857
0000a0 9a 62 dc bb 0a 69 55 3b 90 17 a8 bb 4a 9a 0e 3c
       -0.0067256214 0.003256383 -0.005129762 0.008703778
0000b0 d0 c6 43 3c 1c dc e3 3b 07 30 1a bc 02 68 0b 3c
       0.011949256 0.0069537293 -0.009410865 0.008508684
0000c0 da 1d 91 3c ad 01 3b bc 8b 28 ba 3a 7f f2 8c bb
       0.01771443 -0.011413974 0.0014202757 -0.0043013687
0000d0 f5 4e 8c bb 29 69 47 bc a4 d7 36 3b 80 88 16 3c
       -0.0042818733 -0.012171068 0.0027899528 0.009187818
0000e0 27 d3 17 bb 26 80 05 bc ea a4 00 3b 54 ac 39 bc
       -0.0023166628 -0.008148229 0.0019629546 -0.01133259
0000f0 6d af 98 3c 22 4e fa 3a 4e 81 16 bc 66 e2 14 3c
       0.018638337 0.0019096772 -0.009186102 0.009087181
000100 e6 83 16 bc bd 1d c5 bb 66 af 06 bc fa 1c cb 3a
       -0.0091867205 -0.006015508 -0.008220529 0.0015496307
000110 43 2c 18 bc d2 ec 9b 3b f9 55 9c 3b a4 b0 24 bc
       -0.009287897 0.004758456 0.004770991 -0.01005188
000120 42 1b 2e 3b 05 da 28 bc 98 28 1f bc 28 ca d0 bb
       0.002656654 -0.010305886 -0.009714268 -0.006371755
000130 48 18 16 bc d5 b3 03 bc ed a9 cb 3a 5e 0c 08 3c
       -0.009161063 -0.008038481 0.0015538313 0.00830373
000140 1a 54 ea 3b 73 81 f2 bb 7e 30 17 3c 2b 7b 79 bb
       0.007151139 -0.0074006855 0.00922787 -0.0038067799
000150 cb de 8a bb 00 69 16 bc b7 74 68 bc 7e 84 02 b9
       -0.004237985 -0.009180307 -0.014187983 -0.00012447123
000160 bd 42 16 3c c9 de 99 bb c9 dd 3f bb 99 81 c0 bb
       0.009171185 -0.0046957475 -0.0029276481 -0.0058748242
000170 a7 71 1d 3c 30 3c 1b bc 0d a8 10 3c a2 65 62 bc
       0.009609616 -0.009474799 0.008829129 -0.013818176
000180 c5 63 9f b9 00 5b 7b bb 4f 77 97 3a 08 3d 08 3b
       -0.00030401177 -0.00383538 0.0011555942 0.002078833
000190 6a b1 df ba ed 23 36 bb c5 bb 28 3b b6 09 02 3c
       -0.0017066423 -0.002779241 0.0025746685 0.007936886
0001a0 b3 94 f5 ba f4 e7 07 bc 07 94 f0 3a 8e 57 12 bc
       -0.0018736332 -0.008295048 0.0018354662 -0.0089320075
0001b0 cf cb bb bb 91 fd f2 bb b6 8f e9 ba 16 fa cb bb
       -0.005731083 -0.0074154814 -0.0017819318 -0.006224881
0001c0 89 55 e1 ba eb 03 fa bb fb da a1 ba f5 be ea 3a
       -0.0017191629 -0.0076298616 -0.0012348586 0.0017909693
0001d0 24 91 14 bc e0 fa 06 bc 66 f1 14 3c 4d 5f 1e 3b
       -0.009067807 -0.008238524 0.009090757 0.002416569
0001e0 e2 2d ba 3b 87 f9 33 bb 89 c7 d0 bb 15 65 16 3c
       0.005681739 -0.0027461962 -0.0063714427 0.009179373
0001f0 ff 99 a4 ba e8 8a a2 3b 75 de 27 3c db 64 44 b9
       -0.0012558101 0.0049604066 0.010245909 -0.00018729588

gnn_layers.0.lin.weight f4 [128, 128]
000000 64 e4 f3 bd 20 a0 80 bd c1 b7 2c bd 69 52 ed bd
       -0.119087964 -0.062805414 -0.04216743 -0.11587984
000010 82 e8 8e 3d b5 2a 05 bd 0b 62 23 3e 13 bc a0 bd
       0.06977941 -0.03251143 0.15955369 -0.07848372
000020 81 16 98 3c be df 19 bd 56 8b a0 bd 48 86 6e 3d
       0.018565418 -0.037566893 -0.07839076 0.05823353
000030 85 d8 0e be 82 1b 4d 3d e1 92 ee 3d 3d 12 2b be
       -0.13949783 0.05007506 0.11649109 -0.16706176
000040 b5 66 3c bd f8 cf 02 3e 8d 4b 96 3d c9 55 63 3d
       -0.045996387 0.12774646 0.07338629 0.055501733
000050 52 de 06 bd 10 47 96 3d e5 59 14 3e 58 c8 0b 3d
       -0.032926865 0.07337773 0.14487417 0.03412661
000060 a2 97 12 3e 39 eb 2e 3d 21 17 7c 3d 51 00 f4 3c
       0.14315656 0.042704795 0.061545495 0.029785307
000070 ff 22 9c bc f0 f6 ac bd 8d 9c 06 be 32 53 0d 3c
       -0.019059656 -0.08445537 -0.13145657 0.008625792
000080 44 ca 99 bb 53 3e e2 3d 36 a0 f3 3d b6 06 18 bd
       -0.0046933014 0.11047044 0.11895792 -0.037115775
000090 a1 60 fc bd 35 8b db bd 30 88 8f 3d 16 f0 89 3d
       -0.12323118 -0.10719911 0.070083976 0.06735246
0000a0 3d 19 db bb 2e 66 38 bc 96 0d b5 bc 04 2d bc 3d
       -0.0066863582 -0.01125483 -0.022101205 0.091882735
0000b0 2a ae 8d bd d8 ac f1 bd ab 9b 3a 3c fb 28 e9 bd
       -0.06917985 -0.118005455 0.011389653 -0.113847695
0000c0 55 02 e0 bd 7c e0 f7 bc 1f 9d 0b be 50 e8 7c 3d
       -0.10937945 -0.03025841 -0.13634156 0.061744988
0000d0 4e f8 96 bd 84 ca 03 3e ab 06 ed 3d 22 ef a1 bd
       -0.07371579 0.12870222 0.115735374 -0.07906939
0000e0 38 27 07 3c bc 5e f2 bd c9 4a 42 3c 45 8a db bd
       0.008249097 -0.118344754 0.0118586505 -0.10719732
0000f0 dc 66 90 3d 25 d5 ba bd 94 d9 15 3e 75 f6 ff bd
       0.07050869 -0.09122685 0.1463378 -0.1249818
000100 09 61 cc 3d 65 7b 75 bd 45 1c fc bc 26 9a c0 bd
       0.099794455 -0.05993213 -0.030775199 -0.094044015
000110 54 b8 1b be 45 0b 02 be f1 a8 04 be 22 a4 c1 bc
       -0.15207034 -0.12699611 -0.12955071 -0.023637835
000120 9e 27 35 3d cc 99 c3 bd 6e 69 43 3d d7 18 7e bd
       0.044227235 -0.09550819 0.047707967 -0.062035408
000130 81 b7 24 be f5 b9 fc bc d1 e6 4a 3b 66 56 ea bc
       -0.16085626 -0.03085039 0.0030960331 -0.028605651
000140 af 3a 0a 3e 29 58 24 bd 95 2a 4f bd a2 79 01 be
       0.13498949 -0.04012314 -0.05057772 -0.12644055
000150 00 64 45 bd 97 a2 e8 3d ed af 04 be a6 4b 1d be
       -0.04819107 0.113591366 -0.12957735 -0.15360889
000160 2d 84 fb bd ce c7 0e 3e 1e 86 04 be d5 87 5d 3d
       -0.1228107 0.13943407 -0.12941787 0.054084618
000170 c5 35 57 bd e1 38 2f 3d 78 e2 00 3d 4f 27 7f 3d
       -0.052541513 0.042778853 0.031465977 0.062293347
000180 61 e2 c4 3c 73 6c 5e bd 25 52 03 3e aa 51 2f 3d
       0.024033727 -0.054302644 0.12824304 0.04280249
000190 d0 3b 1f 3c 2c 63 b9 3c 51 97 af 3d 8e 02 47 3d
       0.00971885 0.022630297 0.08573783 0.04858642
0001a0 6f 2f db bd 1c 23 94 3d b5 29 14 be 3a 36 d3 bd
       -0.107024066 0.07233259 -0.14469035 -0.10313077
0001b0 ae 85 82 3d 66 48 ee 3d 99 5a c3 3d f6 4f d3 3c
       0.063731536 0.11634903 0.095387645 0.025794964
0001c0 e1 f8 20 be d2 b7 ef 3a 9c eb d1 bc 26 5e ad bd
       -0.1571994 0.0018289036 -0.025625043 -0.08465223
0001d0 c5 2c e5 3d 97 ee f2 3d 25 0c 21 3e ee 05 f7 bd
       0.1119018 0.11861914 0.15727289 -0.12061678
0001e0 5d f2 03 be 49 dd dd 3d b7 ea c0 bd 09 10 91 3b
       -0.12885423 0.108332224 -0.09419768 0.0044269604
0001f0 0e 32 ad bd cd 12 0b be 35 5d 35 bd 91 9e 64 bd
       -0.08456813 -0.1358139 -0.044278342 -0.055815283
000200 25 cd 75 3d 6a 28 e5 bd 6f 6b d2 3d 43 02 11 3e
       0.060010094 -0.11189349 0.102743976 0.14161019
000210 48 68 91 3d e1 f4 b3 bc e8 7a 08 be 1f ab d3 bd
       0.07099968 -0.021967353 -0.13328135 -0.10335373
000220 18 cd b6 bc 33 61 c0 3d ca 76 d1 bd 2c 8b 0b bd
       -0.022314593 0.09393539 -0.10227735 -0.03406827
000230 82 77 ce 3d 3c 7a b6 bd 5a 0c 36 bd e3 7f 98 bd
       0.10081388 -0.08910033 -0.044445373 -0.074462675
000240 7f e5 06 3e 13 f9 c4 bb ef ec c5 bd 91 83 a2 bd
       0.13173483 -0.0060111373 -0.09664332 -0.079352506
000250 c9 ac 0e be 2a ad 09 be 55 93 ea bd b9 68 b5 3d
       -0.139331 -0.13444963 -0.114538826 0.08857865
000260 db d4 a5 3d 2f e7 f5 bc bf 4d 2b 3d 0f d4 c4 3d
       0.080972396 -0.030017463 0.04182219 0.096107595
000270 95 71 f1 bd 22 78 e8 3d 59 dd 39 bd ff ae 62 bd
       -0.11789242 0.113510385 -0.04537711 -0.05534267
000280 2c 7b 5e 3d f3 de 86 3c d0 97 5e 3d 0a b1 ac 3d
       0.054316685 0.016463732 0.054344 0.08432205
000290 ec cc 01 be 98 a1 3d bb 0b 2e 28 bd 67 17 75 bd
       -0.12675828 -0.0028935429 -0.041059535 -0.05983677
0002a0 02 ee 44 bd 3a 86 af bd 94 0f 46 bd a6 3b 86 bd
       -0.048078544 -0.085705236 -0.0483547 -0.06554346
0002b0 af ec ce 3c e7 9e 49 3d e4 54 af 3d d5 e1 0d 3e
       0.025259344 0.049223807 0.085611135 0.1385568
0002c0 c6 16 76 bd 0e 50 c5 bc 78 62 dd 3c 5f 53 0f be
       -0.060080312 -0.024086025 0.027024493 -0.13996647
0002d0 16 e2 1f 3d 59 b9 a4 bd 6b c5 1a be 8d 41 c4 bd
       0.03903397 -0.08043165 -0.15114371 -0.09582815
0002e0 f8 3d 41 bd ec d8 98 bd 1f 64 0f be 9f 27 10 be
       -0.04717824 -0.074632496 -0.14003037 -0.14077614
0002f0 1f 13 a8 3d 3f e0 19 be 58 d6 4c 3c ac a5 9f bc
       0.08206772 -0.1502695 0.012502275 -0.019488178
000300 67 6a 0c 3e f9 dc 97 bd 79 4b 93 bd 8f 3c a7 3d
       0.13712464 -0.07415194 -0.0719213 0.081658475
000310 2f 00 07 3e ff 0a 5a 3d 71 45 95 bd 2e d2 31 bd
       0.13183664 0.053233143 -0.072886355 -0.043413334
000320 d6 99 65 bd 99 ac d7 3c a3 7e 87 3d d4 4a 02 3e
       -0.056054913 0.026327418 0.06615951 0.12723857
000330 52 2b 21 3e 01 70 24 bd 53 35 58 bc d1 2b 15 3e
       0.15739182 -0.040145878 -0.013196307 0.14567496
000340 9d 3f 3f 3d 0f 78 d9 bd 7f 39 f7 bd 20 58 c5 bd
       0.046691526 -0.106186025 -0.120715134 -0.09635949
000350 24 c1 02 3e 50 32 7b 3c 08 b2 97 3d 21 54 e2 bd
       0.1276899 0.01533182 0.07407004 -0.110512026
000360 fa 4b aa bd 10 f4 f4 3d f7 32 8a 3c 90 f2 d4 bd
       -0.08315273 0.11960614 0.016870005 -0.103978276
000370 57 18 c8 3d 2c 78 8e bd 46 81 c9 3c 80 73 08 3e
       0.097702675 -0.06956515 0.024597775 0.1332531
000380 a8 8b 8d 3d cc 20 aa 3d 75 11 11 3e 7e a6 cf bc
       0.06911403 0.08307037 0.14166816 -0.025347944
000390 b5 06 73 3d aa 44 12 3e 4d a6 89 3d 1d f9 d5 bd
       0.05933257 0.14284006 0.067211725 -0.10447905
0003a0 a6 84 97 3d ce c7 b4 bd bf b0 1f bc 8b 8a 0e 3e
       0.073983476 -0.08827172 -0.009746729 0.13920037
0003b0 37 95 a8 3d 48 cd 1b 3e 84 e4 95 3d d0 0f f9 3c
       0.082315855 0.15215027 0.073189765 0.030403048
0003c0 b5 43 e2 3d 25 7e 8a 3d 0e 3f a1 3c 3b 57 db 3d
       0.1104807 0.067623414 0.019683387 0.10709997
0003d0 d3 97 1e be 2f 13 6a bd 03 4f b8 bd 69 9d 1a 3e
       -0.15487604 -0.0571472 -0.08999445 0.1509911
0003e0 28 90 1a 3e e1 23 f9 3d 82 3f 40 bb db 97 22 3e
       0.15094054 0.121650465 -0.0029334729 0.15878241
0003f0 7d 3a 0e be 6f 2c 7b 3d 32 ab c9 3d a2 da 04 3d
       -0.13889499 0.061321672 0.09847106 0.032435067

gnn_layers.1.att_src f4 [1, 8, 16]
000000 4b 9b d6 3e e3 18 be bd dd 6f ac 3e d4 19 64 3e
       0.41915354 -0.092820905 0.33679095 0.22275478
000010 85 f7 fb 3e 81 be e7 3e ea b8 c2 be 09 3a 68 3e
       0.4921228 0.4526253 -0.38031703 0.22678389
000020 0b c7 87 bc f8 e8 f6 3e d4 45 84 3e 62 09 fa 3d
       -0.016574403 0.48224616 0.25834525 0.12208821
000030 82 e2 2f bd 88 a9 71 3e 0d 55 9f bd 89 42 a4 be
       -0.042940624 0.23599827 -0.07779894 -0.32082012
000040 d9 fb 70 be df ce 12 3e 59 2e 47 3d fd c3 0d 3e
       -0.23533572 0.14336728 0.048628185 0.13844295
000050 1f e5 24 3e 38 af 0c be c4 9b 3f 3e 9f 79 bd be
       0.16103028 -0.13738716 0.18711764 -0.37006852
000060 37 17 9f be 13 e8 5d 3e 00 ad c5 be 92 4c ee be
       -0.310724 0.2167056 -0.3860855 -0.46542794
000070 df 01 a9 3e 7f 3d b7 3d 62 bd e3 be 96 54 3f 3e
       0.3300924 0.08947276 -0.44480425 0.1868461
000080 95 2b 3b 3e b2 3b 49 be 26 43 e5 be 3c 25 7e 3e
       0.18278344 -0.19651678 -0.44777793 0.24818891
000090 44 21 b6 be a1 18 f0 3e bd a8 99 be a0 2c 3a 3e
       -0.35572255 0.4689379 -0.3001155 0.18181086
0000a0 a8 29 f6 be 88 03 5e 3e 1d a3 30 be aa 2e eb 3e
       -0.48078656 0.21681035 -0.17249723 0.4593404
0000b0 50 ba e0 3d b0 d2 74 3e b1 b7 68 bd 2d 45 5b 3d
       0.10973036 0.23908496 -0.056815807 0.053532768
0000c0 0d fe af be 66 3c 95 be 06 ae e8 be 9e 6c d1 3e
       -0.34373513 -0.29147643 -0.4544527 0.4090318
0000d0 9e c9 8e be a7 6e 0b be d6 0e 9e be 7b 22 ba be
       -0.27888197 -0.1361643 -0.30870694 -0.36354432
0000e0 f9 f0 e8 3d 81 a5 bb 3e 38 9c f6 3e a1 a3 ed 3e
       0.11374087 0.36649707 0.4816606 0.464139
0000f0 32 14 25 be d4 19 c4 be be 36 03 3d 36 73 ef be
       -0.16120985 -0.38300955 0.032034628 -0.46767586
000100 82 d2 16 be 19 28 f2 be cf 5a a9 be 93 4b d3 be
       -0.1472874 -0.47296217 -0.33077094 -0.41268596
000110 cf 45 64 be 23 7d 92 3e d7 f6 c6 be 6e ae b1 3d
       -0.22292255 0.28611097 -0.388602 0.08675848
000120 2d 61 bf 3e 91 e2 2d 3e 51 a3 ee bd dc b8 ff 3e
       0.37378827 0.1698096 -0.11652244 0.49945724
000130 90 da a9 3e 67 97 ef be 7f c2 cd 3e 5f 2a 3e be
       0.33174562 -0.46795198 0.4018745 -0.18570851
000140 b4 24 d2 3e 62 d5 af 3e d8 04 47 3e 31 cf 24 3e
       0.41043627 0.34342486 0.19435441 0.16094662
000150 0e 62 fe be bd 8f fe 3e 67 0a 1f be ab 02 98 3e
       -0.49684185 0.4971904 -0.15531312 0.29689535
000160 3f 48 a0 be 5f d5 8c 3e 24 2b ab 3e 3b f4 d4 3e
       -0.3130512 0.2750654 0.3343135 0.41592583
000170 a1 c7 02 be 20 60 e5 be e2 2e e2 be e6 49 92 be
       -0.12771465 -0.447999 -0.44176394 -0.28572005
000180 8d 75 8c bd 0d 02 89 bc f3 4b a0 3e 9f 45 73 be
       -0.068583585 -0.01672461 0.31307945 -0.23757027
000190 08 cb 17 be f1 ac 6a 3e 24 ba c8 be f1 d2 32 3e
       -0.14823544 0.22917534 -0.39204514 0.1746328
0001a0 71 71 bd 3e 2c 2a 96 3e 29 e7 66 be 04 17 77 be
       0.3700061 0.2932905 -0.22549118 -0.24129874
0001b0 b4 0b ba 3e c9 80 38 3d 3e 4b 72 be 06 b5 a7 3e
       0.36337054 0.045044694 -0.23661515 0.32755297
0001c0 9c fa fd 3d d8 58 93 be 39 4a 85 be d1 52 a0 bd
       0.124013156 -0.2877872 -0.2603319 -0.07828296
0001d0 43 d8 5e 3e 16 18 82 be c3 75 55 be 77 1a a6 3e
       0.21762185 -0.25409 -0.20845704 0.32442066
0001e0 ac 80 f3 3d b5 27 8f be 30 0b 62 bd eb c5 e4 be
       0.118897766 -0.27959982 -0.05518645 -0.4468225
0001f0 49 0f d8 be 59 6c 99 be 83 8e b4 be 9e 3c 66 be
       -0.42199162 -0.29965475 -0.35264978 -0.22484061

gnn_layers.1.att_dst f4 [1, 8, 16]
000000 f4 5f cc be 59 73 30 3e 59 8e fa 3e 02 70 2a be
       -0.39916956 0.17231502 0.48936728 -0.1664429
000010 94 7c 5d be 5d e4 f4 be f1 b0 e0 bd 56 fa de 3e
       -0.21629554 -0.47830477 -0.10971249 0.43550366
000020 fb 2c dc bd 73 95 83 be fb 1d 4e 3d 67 e2 5e 3e
       -0.10750767 -0.25699958 0.05032156 0.21766053
000030 72 8e 09 be 8c c8 a6 bd 0e 6e a0 3d 24 18 e9 be
       -0.13433245 -0.0814372 0.07833491 -0.4552623
000040 ed 8b 97 3d 4f 64 03 be 4b 31 ef bd 0d 32 a9 3d
       0.073997356 -0.12831233 -0.11679324 0.082614996
000050 52 04 d4 be 35 20 89 3e 9d fd 80 be fa 6e bb be
       -0.41409546 0.26782385 -0.25193492 -0.36608106
000060 8e cb bc be d4 ba c3 be b6 67 1d be 10 4c 0d 3e
       -0.3687405 -0.38228476 -0.15371594 0.13798547
000070 db b0 00 bf a3 4d 00 3f 11 c4 9e 3e 12 48 79 3d
       -0.5026986 0.50118464 0.31008962 0.060859747
000080 bc 6a 11 3e c0 65 6d 3e 28 a0 96 be 9e 2e 96 ba
       0.14200872 0.23183346 -0.29419065 -0.0011457985
000090 5a 9a 5a 3d e3 2e a3 be 1c 3a 4c 3e e7 cb d0 3e
       0.053369857 -0.3187171 0.19944042 0.40780565
0000a0 2e b6 9d 3e 1e ce b0 be 1c da 16 3e 8b 5f 9d be
       0.30803055 -0.34532255 0.1473164 -0.30736956
0000b0 38 05 d2 3e 49 25 a3 be cd a0 9f 3e fc 70 bf be
       0.41019607 -0.31864384 0.3117737 -0.37390888
0000c0 0c a5 5e be c1 8d ad be 1b 9e 97 3e 72 2a 93 be
       -0.21742648 -0.33897212 0.29612812 -0.2874332
0000d0 9a 5d 57 be 0b 64 e7 3d e5 da 86 3e 65 ab cb bc
       -0.210318 0.112983786 0.26338878 -0.024862
0000e0 b3 37 c3 3d e7 c4 d3 be c1 f6 34 3d 1d 8a 37 3e
       0.09532108 -0.41361162 0.044180635 0.1792378
0000f0 8d 51 12 bd 76 54 ba 3e 1d 1a dc 3e 49 32 56 be
       -0.035722304 0.36392564 0.42988673 -0.2091762
000100 6f 8f af 3d 46 30 69 be cf 06 fd 3e bf 86 a7 be
       0.0857228 -0.22772321 0.49419257 -0.3271999
000110 d8 b1 0e 3e e4 da 43 3e 6b 2b 8a be 9f bb c3 3e
       0.1393503 0.19126469 -0.2698625 0.3822908
000120 2f 27 f4 be 0a 57 99 bd c3 51 f6 be bc 58 01 3e
       -0.47686145 -0.074873045 -0.48109254 0.12631506
000130 26 06 c1 3e a4 4c 41 be ba 6d e9 3e 37 31 75 3e
       0.37700003 -0.18876892 0.45591527 0.23944555
000140 26 9a fe 3e 30 bd de be 9f c3 69 be 84 bb dc 3d
       0.4972698 -0.43503714 -0.2282853 0.10777953
000150 b6 56 a7 be c9 77 44 bd f5 9c e0 be d4 db b6 3e
       -0.32683343 -0.0479658 -0.4386975 0.3571459
000160 d5 1c 30 3e 28 8d c3 3e 9d 35 f3 3e 20 fe a6 3d
       0.17198499 0.3819363 0.4750184 0.08153939
000170 8d 2e ae be 29 6e 28 bd 36 1f 58 be 2b be 68 bd
       -0.3401989 -0.041120682 -0.21105656 -0.056821983
000180 52 1e f0 be 41 72 47 3c dd 4f a4 bd 47 cf 85 3e
       -0.46898133 0.012173236 -0.08023045 0.26134703
000190 08 ff 2f bd 43 b4 c6 3e 13 3e 46 bd e9 e3 eb be
       -0.042967826 0.38809404 -0.048399042 -0.4607232
0001a0 35 f7 8b 3e 9a 8d be 3e d4 41 42 3e fe b3 bc bc
       0.27337041 0.37217408 0.18970424 -0.023035046
0001b0 34 77 d2 3e fd 29 a5 be ef b8 d9 3e 16 a3 d8 3e
       0.4110657 -0.32258597 0.42523906 0.42311925
0001c0 59 98 10 3d f0 b8 5e 3e c7 ec 8f 3e 4b d2 fd 3e
       0.03530154 0.21750236 0.28110334 0.49574503
0001d0 93 b7 a4 bd 68 1b df be 77 d6 0a 3e a2 a6 e0 3e
       -0.080428265 -0.43575597 0.13558374 0.4387713
0001e0 e2 d8 8f be df ee 87 3e 37 43 cf be 42 77 6a be
       -0.28095156 0.26549432 -0.40480968 -0.22897056
0001f0 8f de be be 26 da 2c be 3e 14 e8 3e 14 44 8f 3e
       -0.37279174 -0.16880092 0.45327944 0.27981627

gnn_layers.1.bias f4 [128]
000000 9f 38 18 3c 4a bd 2a 3c 64 21 09 3c e3 8c 2b 3b
       0.009290843 0.010421107 0.008369777 0.0026176504
000010 87 f9 14 3b 2c d6 2c 3c 75 b8 2f 3c 34 4b 79 bb
       0.0022731738 0.010549109 0.01072513 -0.003803921
000020 84 40 03 bc 93 67 25 3c e3 cd 2d 3c 32 9b cd 3b
       -0.008010987 0.010095495 0.010608169 0.0062746042
000030 06 21 30 bc e5 b3 2f bc 64 fe cf 3b d3 89 47 bc
       -0.010750061 -0.010724043 0.0063474644 -0.012178856
000040 a2 09 9e bb d1 bf 24 3c b1 5b dc bb ad 6f 68 3a
       -0.0048229257 0.010055498 -0.0067247977 0.00088667386
000050 02 41 07 bc 80 f9 88 3b b0 38 89 b9 2e 2e a9 3a
       -0.008255245 0.0041801333 -0.00026172912 0.0012907439
000060 e5 1f 05 3a 92 fa 33 3c 1b 34 40 bb 35 29 42 3c
       0.00050783 0.010985034 -0.0029327932 0.011850645
000070 be 92 12 3c ce 48 3d 3c 00 28 fa 3b f2 96 5d 3b
       0.008946119 0.0115530025 0.007634163 0.0033811894
000080 dd dd af bb f0 cd 47 bc 4e 35 08 bc 46 ba cb bb
       -0.0053670243 -0.012195095 -0.00831349 -0.006217274
000090 f3 f9 0f 3b 33 6f 9b 3b 07 3b a2 3b 97 f2 14 3c
       0.002196905 0.0047434806 0.0049508843 0.009091041
0000a0 bd c9 27 bc 25 01 3e 3c 04 22 91 bb 95 83 ae ba
       -0.010240969 0.011596953 -0.004429104 -0.0013314361
0000b0 1b 99 e8 bb 94 bb 2a 3c b5 a7 e8 bb 8a 44 05 3c
       -0.0070983297 0.010420699 -0.0071000704 0.008134017
0000c0 f9 aa 89 bb 87 7c 2f bc cd fa 9c 3b 0b 76 09 3c
       -0.0042012897 -0.010710842 0.00479064 0.00838996
0000d0 e0 4c 18 bc c6 97 b4 bb cc a0 0d bc b6 9a 39 3c
       -0.009295672 -0.005511257 -0.008644294 0.01132839
0000e0 bf ce 03 bc 42 d4 a2 b9 5a ea b0 3b 1a 91 cf 3b
       -0.008044898 -0.00031057192 0.0053990306 0.006334436
0000f0 a5 a4 fd 39 3b ff 1d bc bf 97 22 bc 43 0c 5a bc
       0.0004837859 -0.009643371 -0.009923874 -0.0133085875
000100 83 e4 1b 3c 5f 09 c9 3b cf 6b ba 3b 4d 25 1a bb
       0.009514931 0.0061351503 0.0056891213 -0.0023520768
000110 ca 1c 02 3c bf 5e a1 3b 08 2d 2a bb 32 eb 48 bc
       0.007941434 0.0049246247 -0.0025966782 -0.012263106
000120 9f e5 0e bc 83 d8 18 bc f8 5a 42 3c 1a 62 32 bc
       -0.008721738 -0.009328964 0.011862509 -0.010887647
000130 91 f9 2a 3c 53 d6 38 bc bc 47 05 3a d6 b0 28 3c
       0.010435478 -0.011281568 0.00050842366 0.010296067
000140 64 35 1b bc 15 bf 32 3c 58 c7 bd bb 9b 72 7d 3b
       -0.009473179 0.010909815 -0.005791586 0.0038673047
000150 84 cd c7 3b 04 54 14 3c 39 3d 1e bc 1c c2 62 3b
       0.0060974974 0.009053234 -0.009658151 0.0034600561
000160 51 d7 82 ba 7a 51 37 3c a3 f0 c1 bb da 24 48 bc
       -0.0009982382 0.011188859 -0.0059185787 -0.012215817
000170 cb 17 e5 3b 13 2e 31 3c 1c cd 45 3b f8 2a cc ba
       0.0069913617 0.010814208 0.003018207 -0.001557677
000180 62 58 51 3c ca ab 90 3a 2f 6a 1f 3c 4c f1 e3 bb
       0.01277742 0.0011037525 0.009729906 -0.006956255
000190 57 f5 59 3b 35 06 13 bc 2f ea ed 3b e0 ea 37 bc
       0.0033257806 -0.008973648 0.007260583 -0.011225432
0001a0 0f 7a 24 bc 45 a9 01 ba 38 41 2e 3c 23 35 f7 3b
       -0.010038867 -0.00049461826 0.010635667 0.007544176
0001b0 cd 5f 89 3b 60 6e b3 3a 01 57 69 bb 9d 40 4a 3c
       0.0041923285 0.001368951 -0.0035604837 0.012344507
0001c0 bb 71 fe 3b 30 88 4f bc 00 7e 3d 3c 79 9d a6 3b
       0.0077650226 -0.012666747 0.011565685 0.00508469
0001d0 34 00 77 b9 d8 28 15 bb 53 66 31 bc ba 97 ce ba
       -0.00023555831 -0.002275994 -0.010827619 -0.0015761771
0001e0 16 e4 c8 3b cc 48 34 3c ea 46 6c 3b e4 4e 87 3b
       0.0061307056 0.011003684 0.003605301 0.0041292775
0001f0 34 5c 9d b9 a0 36 6d ba dd 61 d7 bb 42 c9 03 3c
       -0.0003001407 -0.0009048972 -0.0065729455 0.008043589

gnn_layers.1.lin.weight f4 [128, 128]
000000 ea 4e a9 3d e8 db 7c 3d f3 08 bd bd 81 ad 75 3d
       0.08267005 0.061733156 -0.092302226 0.05997992
000010 25 a8 0d be 8b d9 08 3e 77 ab d9 bb b0 2b 0a bd
       -0.13833673 0.13364236 -0.0066427547 -0.03373307
000020 8a 36 d9 3c 5a 98 39 bd c4 78 cc bd 7b 1c 00 be
       0.026515264 -0.04531131 -0.09983972 -0.12510864
000030 2c 5b fe bc 33 14 2f 3d dc 5b be 3b be 40 57 bc
       -0.031049334 0.042743873 0.0058092903 -0.013137994
000040 37 87 e8 bd 23 63 8e 3c 30 4e 87 3d 29 85 59 3d
       -0.11353915 0.017381256 0.0660671 0.053105507
000050 de 43 23 3d 79 35 c5 bd 36 c2 81 3d bb 14 6f bd
       0.039859645 -0.0962934 0.06335871 -0.05836938
000060 55 d6 d2 bd 85 4a f3 3d bb c6 5f bd 9d fc 17 be
       -0.10294787 0.11879448 -0.054632884 -0.14842458
000070 12 2e ba bd b1 dd d6 3c a4 b8 a9 bd 71 62 d1 3d
       -0.090908185 0.026228758 -0.082871705 0.10223854
000080 a4 b6 de bb ca e5 15 3e 46 53 4c 3d 87 d2 35 bd
       -0.006796675 0.14638439 0.049884103 -0.044390228
000090 99 32 0c 3e 4b e3 4f 3c 18 6a 4f 3c 9a c0 5c 3b
       0.13691176 0.012688468 0.012659572 0.0033684135
0000a0 44 9b fe bd 2e 60 dd bc 40 23 db 3b 87 da c1 bd
       -0.12431958 -0.027023401 0.0066875517 -0.09465509
0000b0 65 dd b1 bd 1a e9 a1 bd fd be b8 3d 64 32 12 3e
       -0.08684806 -0.07905789 0.09020803 0.14277035
0000c0 f5 d8 91 bd 76 18 a4 3d f0 b1 37 3c 2e a2 6d 3d
       -0.071214594 0.08012478 0.011211857 0.058015995
0000d0 ec 9e 87 bd d0 f3 a6 3d c6 39 f2 bd b3 a2 90 3d
       -0.06622109 0.08151972 -0.11827426 0.070622824
0000e0 36 3b 95 bd 31 ca a4 bd a0 6b f6 bd 0d 88 aa 3d
       -0.07286684 -0.080463775 -0.120322466 0.08326731
0000f0 0b 29 65 3d c7 b8 40 3d 1b 74 10 3e cb 7d eb bd
       0.055947345 0.047051217 0.1410679 -0.114986025
000100 dd e8 90 3d b9 2a ef bd 1a d8 1d be c0 c5 77 3b
       0.07075665 -0.116780706 -0.15414467 0.0037807077
000110 c9 74 9d 3d 34 39 be bc 20 39 0d 3d 95 c6 99 3d
       0.076882906 -0.023220636 0.034478307 0.0750858
000120 a8 88 0d 3e 1e ab 07 3e 2a ba ef bd ab 30 97 3d
       0.13821661 0.1324887 -0.1170543 0.073823296
000130 7f 3a 61 3d 53 6e 71 bc 85 b4 80 bd 06 8a 68 bd
       0.054987427 -0.014735776 -0.06284431 -0.056772254
000140 a6 20 02 3d 67 85 e5 3d d0 d8 1f bd b1 3d ba bd
       0.031769417 0.11207085 -0.039025128 -0.09093798
000150 45 e6 1b 3c c2 54 ea 3d f8 73 47 bd 24 53 89 3d
       0.00951535 0.114419475 -0.04869458 0.06705311
000160 c5 b1 b2 3d 72 83 da bc c2 91 55 3d 2f 21 bb 3b
       0.08725313 -0.026674006 0.05214096 0.005710743
000170 01 9b 56 3d 5a 1e e6 bd 40 05 0f be 4c 0c e8 bd
       0.052393917 -0.11236258 -0.13966846 -0.113304704
000180 e3 cf b3 3d 95 22 26 be b1 de 69 bd d2 c3 a5 3d
       0.087798856 -0.1622413 -0.05709714 0.080939904
000190 21 f0 a3 3b 5e 39 2e bd 27 da 20 bd 4c 63 d8 bd
       0.005002991 -0.04253518 -0.039270546 -0.105658144
0001a0 97 ee 14 be e5 59 ae bd bc 2a c9 3d 40 76 ab bd
       -0.1454414 -0.0851324 0.09822604 -0.08372164
0001b0 4b 0d a1 3d 2b 1b 73 bc 01 51 cc bd e1 59 c1 3d
       0.078638636 -0.01483802 -0.09976388 0.09440971
0001c0 3c 14 c0 3d 72 2e 78 bc 4f a3 d4 bc 1e 43 6f 3c
       0.093788594 -0.015147792 -0.025956778 0.014603404
0001d0 1a b2 8e 3d 97 d0 8c 3c 69 7d a9 bc 82 36 9f bd
       0.06967564 0.017189307 -0.020689683 -0.077740684
0001e0 41 33 90 bd c5 82 fb 3c ff f9 26 bd 80 9a 0e be
       -0.07041026 0.030702004 -0.04076576 -0.13926125
0001f0 d8 2f a1 bd bc b3 8f bd 02 12 95 bd 39 4d e4 3d
       -0.078704536 -0.070167035 -0.07278825 0.111475416
000200 3c e7 08 3e 8f 4c 87 3d 9a d7 99 bd e5 96 77 bc
       0.13369459 0.06606399 -0.07511826 -0.01511166
000210 f5 92 00 be 18 a3 31 bd 4e 90 b7 bd 2d e3 c1 3d
       -0.1255606 -0.04336843 -0.08963071 0.094671585
000220 a6 24 30 bc f5 35 e7 3d df 2b f9 3d c4 94 9e 3a
       -0.010750925 0.11289588 0.12166571 0.0012098779
000230 36 5e 56 bc 39 0b 03 3e 5b c8 96 3d 4f db d9 3c
       -0.013083985 0.1279725 0.073624335 0.026593832
000240 ae a9 f5 bd ab 55 08 be f3 4d 24 3d a6 0e 76 bd
       -0.119952545 -0.1331393 0.0401134 -0.060072564
000250 34 c8 8f bd f4 5a b9 bd d8 f5 c7 bc 2a b8 94 bd
       -0.070206076 -0.09050551 -0.02440922 -0.07261689
000260 a1 5c e7 bd f7 19 85 bd 21 06 e3 3d a2 34 0a bd
       -0.112969644 -0.06499093 0.11085153 -0.0337416
000270 ef 83 27 3e 3d fa 4a bd 85 46 1e 3e db 12 39 bd
       0.16358922 -0.049555052 0.15456589 -0.045183998
000280 34 6f 62 bd 86 05 cd 3d 00 9f a2 3d f8 41 7a bd
       -0.055281833 0.10010819 0.07940483 -0.06109807
000290 ba 79 7b 3d cb 77 ca bd 07 e8 fb bb a6 15 20 be
       0.061395384 -0.0988613 -0.007687572 -0.15633258
0002a0 b8 63 d3 3d 68 f2 d2 bd 06 0b 74 bd 4e 0f 0e be
       0.10321754 -0.103001416 -0.059580825 -0.13873026
0002b0 84 62 f2 bd 56 c4 80 3d e7 95 13 3b e7 1c ba 3d
       -0.118351966 0.06287448 0.0022519769 0.09087544
0002c0 3d b3 b6 bb 6d 8f ce 3d 4b ea 3b 3d e0 5c e1 bd
       -0.005575566 0.1008595 0.045877736 -0.110040426
0002d0 d2 03 54 3b 23 54 04 be 53 b5 b2 3d c6 7e a6 3d
       0.003235091 -0.1292272 0.08725991 0.08129649
0002e0 8f ca c6 3d 4c 42 c9 bd 26 0a fa bd d1 de f8 bd
       0.09706604 -0.09827098 -0.12208967 -0.12151874
0002f0 5a 44 e9 bd ec 74 4b bd bf 29 05 3e e8 20 e9 3d
       -0.1138999 -0.049672052 0.13004206 0.113832295
000300 8f 2b 1d 3d 13 d5 7e 3d fa 26 b6 3d 2d 7d bd bd
       0.03837162 0.062214922 0.08894153 -0.09252391
000310 50 e6 88 3d e2 f7 3d bd 89 60 e7 3d 6a e0 09 be
       0.066845536 -0.046378978 0.112977095 -0.13464513
000320 9a 6d f0 bd 9e ee 7e bd 6a 8d a1 bd d5 cc f8 3d
       -0.11739655 -0.06223928 -0.07888301 0.121484436
000330 cb 2f 27 3e 1b 74 d8 3b d0 7f 1a bd a2 80 db bd
       0.16326825 0.0066056377 -0.037719548 -0.10717894
000340 54 ae de bd 2b 06 21 3e db 9c 08 3d de be f4 3d
       -0.10873094 0.15725009 0.033352714 0.119504675
000350 ed f7 bb bc aa bd ca bd fa 88 1d 3e 68 4a 61 bd
       -0.022945369 -0.09899457 0.15384284 -0.0550026
000360 da 9d 39 3d 1f d9 01 be 45 82 07 3e 39 b8 ba 3d
       0.045316555 -0.12680481 0.13233288 0.09117169
000370 08 e7 c0 3c 76 27 c0 3d e6 84 ce 3a 37 35 ac 3d
       0.023547664 0.093825266 0.001575616 0.084085874
000380 23 ca 9b bd 98 9d 91 bd 5f 1d 7e 3d 3e c0 0b 3e
       -0.07606914 -0.07110137 0.06203973 0.13647553
000390 24 c4 11 be 6a 21 5a bd a9 b3 20 be 74 18 e6 bd
       -0.14234978 -0.053254522 -0.15693535 -0.11235133
0003a0 89 29 c7 3d 79 e1 28 bb 31 32 a7 bd 35 44 b2 bd
       0.09724719 -0.0025769158 -0.0816387 -0.08704416
0003b0 92 d2 ce 3d cb 22 1a be 98 bb 29 3d 31 6a d8 3d
       0.10098757 -0.15052335 0.04143867 0.105671294
0003c0 ca 8f fc bd c0 46 20 b8 73 34 b0 bd 55 bb 8d 3d
       -0.12332113 -3.8212864e-05 -0.08603754 0.069204964
0003d0 28 80 44 bd f2 ae eb bd e6 d6 f3 bd e4 54 75 3b
       -0.04797378 -0.115079775 -0.11906223 0.0037434632
0003e0 99 f6 c5 bd 3a 1f 05 bc 17 f6 aa bd 04 f9 b0 3b
       -0.096661754 -0.008125121 -0.08347719 0.0054007787
0003f0 cc a9 c0 bd 67 6d 92 3d ed a8 12 be a8 c9 4c bd
       -0.09407386 0.07149773 -0.14322253 -0.049997002

gnn_layers.2.bias f4 [128]
000000 7f e0 d0 bb 57 7c 02 3c 45 a5 0b bc 7d 0c 49 3c
       -0.0063744183 0.007964215 -0.00852329 0.012271044
000010 d4 9b 09 bc 7f 7b 40 bc d7 e3 11 3b 19 79 0f 3c
       -0.008398969 -0.011748194 0.0022261047 0.008756899
000020 b1 dd 5a bc 02 59 3d 3a 46 48 3f 3c fc 13 8d 3b
       -0.013358519 0.0007223041 0.011674946 0.004305361
000030 72 25 c8 bb 6d 40 16 3c c5 23 0b bc 8e 40 50 bc
       -0.0061079795 0.009170634 -0.008492415 -0.012710704
000040 1d ec 4b bc b7 93 14 3c 51 6d 5c bb 8d 29 60 bc
       -0.0124464305 0.009068421 -0.0033634494 -0.0136817815
000050 e8 78 44 bc a0 1b 4d bc a7 97 44 bb 09 d3 90 39
       -0.011991717 -0.012518793 -0.0029997618 0.00027623054
000060 89 27 79 ba 43 8b 52 3c d7 a0 4f bc 7f af 22 bc
       -0.00095044874 0.012850585 -0.012672625 -0.009929537
000070 bb 6e 80 bb cc cf e6 b9 63 b5 28 bc 94 c9 05 bc
       -0.00391945 -0.0004402384 -0.010297152 -0.008165736
000080 36 73 f6 bb 8a 3c ba 3a 3a ae 28 3b dd 28 4c 3c
       -0.0075210584 0.0014208716 0.0025738613 0.012460914
000090 97 01 7e 3c 69 c0 01 3c 90 0c 48 bc c9 4b 25 3b
       0.015503309 0.007919409 -0.012210026 0.0025222173
0000a0 28 bf 30 bc d1 f6 38 3c 05 9a 57 3b 4e dc 90 3b
       -0.010787763 0.011289314 0.00328982 0.0044207936
0000b0 45 ec 28 ba cd 2f 10 3c 16 81 4e 3c ee 2c 3b bc
       -0.00064438983 0.008800459 0.012604019 -0.011424286
0000c0 9c 5f b7 bb 5c 75 3f 3c 7d 36 54 3c 76 62 c4 b9
       -0.0055961143 0.0116856955 0.012952444 -0.00037457392
0000d0 db d1 6f 3a e3 17 1f bc a1 9d 0b 3c 29 10 5b 3c
       0.00091483974 -0.009710285 0.008521468 0.013370552
0000e0 fb b2 10 bc 90 e7 49 bb 80 b7 77 3c e6 4c 1f bc
       -0.008831735 -0.0030808188 0.015119433 -0.009722924
0000f0 ba 07 3d bc 1f c9 55 3c 63 0f 37 3c 42 36 ce 3b
       -0.011537487 0.013048439 0.011173102 0.006293089
000100 89 59 85 3b c0 c5 19 bc ae 7b 4f 3b 1d 16 f0 3b
       0.0040695113 -0.009385526 0.0031659412 0.007326855
000110 86 78 92 bc 38 92 70 ba 79 46 b6 bb d7 05 59 3c
       -0.017879736 -0.0009177062 -0.0055626 0.013246021
000120 5b 65 f4 3b 11 99 01 3c 3c f9 a0 3b 56 81 a4 bb
       0.0074583716 0.007910029 0.0049125236 -0.005020301
000130 c1 f2 65 3c ee e7 58 bc 49 e6 74 bb 8a d2 cf 39
       0.014034928 -0.01323889 -0.0037368706 0.0003963898
000140 96 73 8e bb 70 ec ec 3b c6 f9 0c bc 47 99 a9 3a
       -0.004347275 0.007230334 -0.0086044725 0.0012939357
000150 ee 4b 26 bc d4 6a aa 3b 39 42 ba 3b 94 53 1b 3c
       -0.010149939 0.005200723 0.005684164 0.009480376
000160 b9 5f 24 bb ce af 9a 3b 83 99 b2 bb 91 34 34 3c
       -0.002508147 0.0047206646 -0.005450429 0.010998861
000170 01 ec ab bb f2 30 53 bc 02 6d 0b bc db d9 21 3b
       -0.0052466397 -0.012890087 -0.008509876 0.0024696502
000180 99 48 23 3b 20 87 3b 3c 1a 57 91 3b 0a 88 5b 3c
       0.0024915098 0.0114457905 0.004435432 0.013399133
000190 c0 57 c0 bb 80 b2 24 bb dc ac 50 bc 3a aa 47 3c
       -0.0058698356 -0.0025130808 -0.012736525 0.012186581
0001a0 da 22 2c bc d2 b2 c0 3b 52 d3 3c bc 1f 1b b9 3b
       -0.010506356 0.005880692 -0.011524992 0.005648985
0001b0 35 30 ba bb 69 0c df 3a 9e 7c cb 3a 91 56 b1 bb
       -0.0056820163 0.0017017248 0.001552481 -0.005411931
0001c0 3f c5 1a 3c c8 63 52 3c 88 b1 fb ba 82 0e 0a 3b
       0.009446441 0.0128411725 -0.0019202689 0.0021065776
0001d0 a6 76 f2 bb a3 00 99 ba a1 14 34 bc e7 21 51 3c
       -0.007399398 -0.0011673163 -0.010991246 0.012764431
0001e0 69 38 43 bc 68 77 0d 3c 41 d9 c0 bb 23 1f 22 3c
       -0.011915305 0.008634426 -0.0058852737 0.009895119
0001f0 a6 5c ba 3b 96 22 69 3b b2 37 50 bc 0d 9f 42 3b
       0.005687314 0.0035573593 -0.012708591 0.0029696852
